...Build data and model____________________________________________________________________________________________________
Layer (type)                     Output Shape          Param #     Connected to                     
====================================================================================================
input_1 (InputLayer)             (None, 17, 300)       0                                            
____________________________________________________________________________________________________
input_2 (InputLayer)             (None, 17, 300)       0                                            
____________________________________________________________________________________________________
lstm_1 (LSTM)                    (None, 100)           160400      input_1[0][0]                    
____________________________________________________________________________________________________
lstm_2 (LSTM)                    (None, 100)           160400      input_2[0][0]                    
____________________________________________________________________________________________________
concatenate_1 (Concatenate)      (None, 200)           0           lstm_1[0][0]                     
                                                                   lstm_2[0][0]                     
____________________________________________________________________________________________________
input_3 (InputLayer)             (None, 121)           0                                            
____________________________________________________________________________________________________
dense_1 (Dense)                  (None, 4)             804         concatenate_1[0][0]              
____________________________________________________________________________________________________
dense_2 (Dense)                  (None, 4)             488         input_3[0][0]                    
____________________________________________________________________________________________________
average_1 (Average)              (None, 4)             0           dense_1[0][0]                    
                                                                   dense_2[0][0]                    
====================================================================================================
Total params: 322,092
Trainable params: 322,092
Non-trainable params: 0
____________________________________________________________________________________________________
…
